models/rebel/bidding_net.pth.tar (torch, 57158 bytes, 5 tensors)

fc1.weight f4 [128, 40]
000000 cd c3 d0 bd c1 f9 3e 3d 38 8c 07 be 63 26 0c be
       -0.10193596 0.046624903 -0.13237083 -0.13686518
000010 ee 83 ba 3c b3 ca ac bc 4b 27 2f 3d 3b 82 b5 bd
       0.022767987 -0.021092748 0.042762082 -0.0886273
000020 8c 22 fc 3d 4a d4 64 3c a4 8b 95 3b dc 6d f4 3d
       0.12311277 0.013966629 0.0045637656 0.119350165
000030 18 70 1a 3e 6e 24 03 bd 62 e1 7e bd ff 71 09 be
       0.15081823 -0.032017164 -0.06222666 -0.13422392
000040 92 4d fd bd 55 5a d1 3d d9 73 10 be c0 d4 c6 3d
       -0.12368311 0.102223076 -0.14106692 0.097085476
000050 30 02 b3 bd 44 70 0b 3e 3c 08 ad 3d 1e 75 ff bd
       -0.087406516 0.13617045 0.08448836 -0.1247351
000060 cf d5 06 be 2c 24 8e 3c 50 07 02 3e 7c 23 46 3d
       -0.13167499 0.017351232 0.12698102 0.048373684
000070 ed 14 c2 bd 96 cb 1b be ab 09 8f 3d cd 2e 30 be
       -0.094766475 -0.1521438 0.06984266 -0.17205353
000080 09 3d a4 3d 4b 9d 12 bc 14 f4 df bd e4 30 a1 3c
       0.08019454 -0.008948634 -0.10935226 0.019676633
000090 ef c2 69 3d 68 35 9c bd 06 d7 cc 3c 88 72 19 be
       0.05707067 -0.07627374 0.025004875 -0.14985096
0000a0 85 6e 07 be 99 ed 91 bd 48 65 3f bc e8 d7 8d 3d
       -0.13225754 -0.07125396 -0.011681862 0.069259465
0000b0 aa dc fa 3c be ee 14 3d 22 6c 7c bd 61 89 93 bd
       0.030622799 0.036360495 -0.06162656 -0.07203937
0000c0 5b c7 32 be 20 84 a7 3d 6e 52 da bd c2 16 18 be
       -0.1745886 0.08179498 -0.106602535 -0.14852431
0000d0 04 01 d2 bd ed 79 0c be ad ab 20 bd 3b 89 cf bd
       -0.102541 -0.13718386 -0.039226223 -0.101335965
0000e0 a0 16 eb bd c5 2c 1d be a3 ff f5 bd 66 a1 a1 bd
       -0.11478925 -0.1534911 -0.120116495 -0.078921124
0000f0 43 c7 10 3e dc 0a 10 bd 19 ce 11 be 92 de 73 3d
       0.14138512 -0.035166606 -0.14238776 0.05953843
000100 1d f3 1e be 4e 3d 03 3d 30 09 9e bc ed 04 e7 bd
       -0.15522428 0.032040887 -0.01929149 -0.112802364
000110 10 3c a7 bd 5b cd d1 bd 87 4a 09 be a5 b8 b6 bd
       -0.08165753 -0.102442466 -0.13407336 -0.08921937
000120 90 09 94 3d 42 56 2f 3e 74 27 14 be bf a2 09 3e
       0.072283864 0.17122748 -0.14468175 0.13440989
000130 63 67 48 3d 9a 75 70 bc 97 27 cf bd 2e 08 75 3d
       0.048926722 -0.014676476 -0.10114973 0.059822254
000140 38 70 fc 3d 52 7c 9d bd 3d 98 0d 3e fa ab d0 bc
       0.123260915 -0.07689728 0.13827606 -0.02547263
000150 88 73 d8 bd 3e 5b 0a 3e fd 0d 9e bb 9e ce bb 3c
       -0.10568911 0.13511369 -0.004823445 0.022925671
000160 fe 72 1f be d2 6e 2d bd 83 05 03 3e 63 4b b3 3d
       -0.1557121 -0.042342015 0.12795071 0.08754613
000170 9e dd a1 37 f4 b9 ab bd 54 d3 21 3c 9a 33 d4 3c
       1.9295894e-05 -0.08385077 0.009877045 0.025903512
000180 41 45 f3 bd 6a 37 c0 3c 19 27 15 be 07 63 07 3e
       -0.118784435 0.023463923 -0.14565696 0.1322137
000190 a2 5d 82 3d 5d 3d 35 bd 1a 4c 0c be 78 b3 9a 3d
       0.06365515 -0.044247974 -0.13700905 0.07553762
0001a0 37 b8 dd bd b5 95 04 3e 57 5f 8f bc 84 22 a1 bd
       -0.10826152 0.12947734 -0.017501516 -0.078679115
0001b0 74 8c f8 bd 67 69 26 bd e9 19 58 3d 6a c1 df 3d
       -0.12136164 -0.040627863 0.052759085 0.10925563
0001c0 10 88 87 bd 99 48 03 3e 67 f1 aa bd 76 76 0f be
       -0.06617749 0.12820663 -0.08346825 -0.14010033
0001d0 28 6a 56 bd ee e1 88 bb a0 41 72 3d 95 0f 83 3c
       -0.052347332 -0.0041773235 0.059144616 0.015998641
0001e0 46 8e f7 3d c5 f5 cf 3c 0c 7d ab 3d 44 da a9 3d
       0.120876834 0.025385747 0.0837346 0.08293584
0001f0 5d b1 0d be c6 65 38 be 5f 03 b4 bd 2d d6 2f be
       -0.1383719 -0.18007573 -0.087897055 -0.17171545
000200 2e 16 f4 bd 73 98 42 3d 7d 62 ba 3d 74 ab 2c bd
       -0.11918293 0.04750867 0.091008164 -0.042155698
000210 84 63 10 3c e5 85 de bd ac ec 11 be ab dd 31 3d
       0.008812789 -0.10865382 -0.1425044 0.04342429
000220 c4 51 01 be 6c a9 09 be b0 63 47 bd 55 5e c7 3d
       -0.12628847 -0.13443536 -0.048679054 0.09734789
000230 b1 e3 db bd 95 e2 08 bd ec 55 14 be bf fd 5c 3d
       -0.10736788 -0.03341921 -0.14485902 0.05395293
000240 62 1d 70 3d a0 eb dd 3d d9 e4 2e be 6a 64 2a be
       0.05862177 0.108359575 -0.17079486 -0.16639867
000250 de f1 ef bd fc 85 02 be f3 54 c2 bc bf 30 d1 bd
       -0.117160544 -0.12746423 -0.023722148 -0.10214376
000260 92 c1 ec 3c f0 d3 00 3e 82 38 46 3d cf 07 c4 3d
       0.028900895 0.12580848 0.048393734 0.09571802
000270 67 de 93 3d e5 14 a6 bd dc a8 28 3c d4 c8 32 3d
       0.07220154 -0.08109454 0.010294165 0.043648556
000280 8d 7e 88 3d c2 bd 33 be df 15 0f be 6d 05 ee bd
       0.06664763 -0.17552856 -0.13973187 -0.11622129
000290 e3 f2 14 be ef 93 02 3d 7c a7 b7 3d aa 64 96 bd
       -0.14545779 0.03187936 0.08967492 -0.07343419
0002a0 ac 13 00 3e 07 01 31 be a9 d5 b9 3d ca 5e 70 3b
       0.12507504 -0.17285548 0.090739556 0.0036677592
0002b0 c8 a9 03 be 5f 44 9c bd 79 d5 49 3d 91 0b 0e be
       -0.12857735 -0.07630228 0.04927585 -0.138716
0002c0 44 d9 d8 3d eb 15 09 be 4a b1 dc 3d 7d b8 02 bd
       0.10588315 -0.13387267 0.10776003 -0.031914223
0002d0 69 b4 9a bd 46 d9 ae 3d e2 20 3a bd 30 33 d3 3d
       -0.07553942 0.08537535 -0.045441516 0.103124976
0002e0 55 e3 af 3d 8a 7d 9d bd 9c 21 bd 3d a7 97 b0 3b
       0.08588282 -0.0768996 0.09234926 0.005389172
0002f0 5a 87 6b 39 c7 1b 9c bc 4f 27 bc 3c fb e4 c6 bd
       0.00022461769 -0.019056214 0.022967963 -0.09711643
000300 c6 c7 6e 3d 36 dc c1 3d f6 65 53 bd f7 e1 1e be
       0.058295988 0.0946583 -0.05161091 -0.15515886
000310 d3 6e 10 3d 59 27 53 3d e0 1f 04 be a0 13 bd bd
       0.03526194 0.051551197 -0.12902784 -0.09232259
000320 77 c3 fe bd 5c 60 4e bd a6 09 b8 3d 9c b4 08 3d
       -0.12439626 -0.050384864 0.08986215 0.033375368
000330 d2 16 30 3d d2 7c 24 be 07 a3 ac 3d 9d db f1 3d
       0.042990513 -0.1606324 0.084295325 0.11809466
000340 51 90 20 bd b5 97 cc 3d b9 63 90 3c e2 b1 18 3e
       -0.03920013 0.09989873 0.017625676 0.14911607
000350 34 fb 8c bc 09 e8 dd bc 34 d0 01 3e ad f6 c0 bd
       -0.017209627 -0.027088182 0.1267708 -0.0942205
000360 8c 98 e4 3d 81 38 83 bd 7e bb cb bc ee de e5 bc
       0.111619085 -0.06407262 -0.024869677 -0.028060403
000370 87 df ef bc 57 cd f1 3d 99 be 1d be 5b 2a 89 bd
       -0.02928139 0.118067436 -0.15404738 -0.06697532
000380 62 47 01 3d 15 d2 8b bd 32 4d a6 38 0e b9 eb 3d
       0.031562217 -0.06827179 7.9298756e-05 0.11509906
000390 f2 5e 0b 3e 84 04 f7 bc 0f c3 ac bd de 5d da bd
       0.13610438 -0.03015352 -0.08435642 -0.10662435
0003a0 8c 51 cd bd 66 47 79 bd 16 32 fd 3d 48 06 32 be
       -0.100253195 -0.060859106 0.12363069 -0.17385209
0003b0 e6 d6 60 3d 85 34 79 bd fb e8 1f 3c 01 f0 11 be
       0.054892443 -0.060841102 0.009760137 -0.1425171
0003c0 87 3c 9f bd a4 fc 7e 3c f7 84 ec bd 4b e6 7d bd
       -0.077752165 0.015563164 -0.115487985 -0.061987203
0003d0 52 8f 8d bd 8c 2d 95 3d 4f 3e 69 3d af 02 ab 3c
       -0.06912102 0.07284078 0.056944188 0.020875303
0003e0 80 40 bf bd 59 54 22 ba b3 bf bf bd 9c a4 fd bc
       -0.09338474 -0.00061923784 -0.093627356 -0.03096228
0003f0 2a 5e 1e bd 20 12 05 be 20 fa 37 3d 57 81 ce 3d
       -0.03866402 -0.12995195 0.044916272 0.10083263

fc1.bias f4 [128]
000000 d2 8d 69 bd d6 97 f0 bd d2 f4 94 3b 64 30 e5 bc
       -0.057020016 -0.117477104 0.0045457864 -0.027977176
000010 5f ee 0d 3e e7 84 aa bd 9f 6f 1e 3e 0e 0a 5d bd
       0.13860463 -0.0832613 0.15472268 -0.053964667
000020 28 44 82 bd a7 b7 b3 bd 8c a1 d2 3d f2 da b5 3d
       -0.06360656 -0.08775263 0.10284719 0.08879651
000030 24 31 85 bd aa b4 0f be 65 ce 59 3d d4 ec 23 3d
       -0.065035135 -0.14033762 0.05317535 0.04002078
000040 7d 31 0e be ce 67 a2 3d 47 b8 91 3d 00 ae 18 be
       -0.13886066 0.079299554 0.07115226 -0.14910126
000050 3f 71 1c 3e 6c ef 4c bd 8a 48 08 3e 73 ca a5 bc
       0.15277575 -0.050033018 0.13308921 -0.020238137
000060 da b4 12 bd 82 5c 36 3d 4d 75 c1 bd 17 59 3e 3d
       -0.035817005 0.044521816 -0.094462015 0.04647168
000070 d4 e4 1b be a6 c6 35 3d ff dc ea bd 99 1f 71 bd
       -0.1522401 0.0443789 -0.11467933 -0.058868024
000080 e5 81 6d bc 9d fd 45 3d 69 33 9a bd 39 aa 82 bd
       -0.014496301 0.048337568 -0.07529337 -0.06380124
000090 ac 76 26 bd 1a 67 7d 3d f3 7e e4 bd f6 c6 0c be
       -0.040640518 0.061865903 -0.11157026 -0.13747773
0000a0 8c 55 32 3d 52 8a 07 bd de 99 1d bd b4 ba b6 bd
       0.043538615 -0.033090897 -0.038476817 -0.089223295
0000b0 00 60 5f bd 66 bf 8c 3d ff e7 b3 bd b6 0c 10 be
       -0.054534912 0.06872444 -0.08784484 -0.14067349
0000c0 a5 6f f8 bd c7 b4 22 bd 8a 9c 9a 3c eb a7 d0 bd
       -0.121306695 -0.039723184 0.018873472 -0.10188278
0000d0 b8 51 a0 bd 39 0f 2d 3d 17 68 0a be 71 8b 05 3e
       -0.078280866 0.042250846 -0.1351627 0.13041474
0000e0 dc 8b 8b bd b9 12 a6 3d 98 08 08 be 67 e1 31 be
       -0.068137854 0.0810904 -0.13284528 -0.1737114
0000f0 99 8a 83 bc 22 f5 e8 3d ff 5c a2 bd 56 a9 09 be
       -0.0160573 0.113748804 -0.07927894 -0.13443503
000100 1e 8f aa bd bf ea c6 bd 04 03 f2 bd 4c a0 0a be
       -0.08328079 -0.09712743 -0.118169814 -0.13537711
000110 1d e9 02 3e 4c 72 12 be 96 55 ec 3d 8d 39 11 be
       0.12784238 -0.14301413 0.11539762 -0.1418211
000120 c2 c4 28 3d f3 bc 17 3c a4 1b 14 be c0 44 3b bd
       0.041203268 0.009261358 -0.14463669 -0.045719862
000130 ec 8e f1 bd 4a 7b d3 3d 00 bc 25 be 98 e9 08 bd
       -0.11794838 0.1032625 -0.16184998 -0.033425897
000140 18 85 e6 bd ec bb 17 3e d6 8d db bd 87 16 54 3d
       -0.11255854 0.1481778 -0.107204124 0.051779296
000150 65 12 90 bd 86 1d c8 bd d0 08 83 bc 0d 8c 0b be
       -0.070347585 -0.09771256 -0.015995413 -0.13627644
000160 88 68 40 be 77 19 bd b9 7e 4a 89 3c f9 61 b0 bd
       -0.18789876 -0.00036067862 0.016759153 -0.08612437
000170 6c 03 6f bd ee 2b 1c 3e d7 e8 aa bd 69 52 19 3d
       -0.058352873 0.15251133 -0.08345192 0.037432108
000180 08 ff d7 3d 7a dc dc 3d 47 58 17 3e 23 71 96 bc
       0.1054669 0.1078424 0.14779769 -0.018364495
000190 71 40 10 be ce 6a 13 3e bf e7 dc bd 74 1b 6f 3b
       -0.14087082 0.14396212 -0.107863896 0.003648487
0001a0 c7 26 1b be c4 7c fb 3d 3e 12 03 bd ef 75 09 3e
       -0.15151511 0.122796565 -0.03199982 0.13423894
0001b0 f4 ec f2 bc 2d 5c 92 3d 5c 97 f6 3d 0c 32 30 be
       -0.029654004 0.071464874 0.12040588 -0.17206591
0001c0 2d f9 20 3e 7e 5b 0d 3b 2a c2 88 bd d6 41 7a bc
       0.15720053 0.0021569426 -0.06677659 -0.015274486
0001d0 5a 67 94 3d b0 e0 17 3e f1 64 05 bd 0e b0 88 bd
       0.07246275 0.14831805 -0.03256697 -0.06674205
0001e0 55 90 f4 3d 26 bc aa bd 9d 9d 5f 3d 99 85 ab bc
       0.11941592 -0.08336668 0.05459367 -0.020937728
0001f0 ab ff 00 3e 31 59 36 3d ec e8 10 3d 4e 8d 2c be
       0.1259753 0.044518653 0.03537838 -0.16850778

fc2.weight f4 [64, 128]
000000 7a 9d a2 bd d9 1f 43 3d 8b 62 99 bd 3a dc 83 bc
       -0.079401925 0.047637794 -0.07489499 -0.016096223
000010 31 2b 50 3d 7b 09 6c bc 8f 52 a7 3d aa c7 67 bd
       0.05082244 -0.014406557 0.08170044 -0.0565869
000020 0c 9a bd 3c b5 ea 1e ba c1 bf 29 bd 65 b3 57 3d
       0.023144744 -0.0006062196 -0.041442636 0.05266132
000030 02 00 89 3d 18 d8 81 3c 1a ad 0b bd 5c 03 60 3d
       0.066894546 0.015850112 -0.03410063 0.054690704
000040 0b f0 41 3b 95 25 ff 3c 12 f3 39 bd d5 e9 35 3d
       0.002959254 0.03114585 -0.045397826 0.044412453
000050 26 04 af 3d f6 99 11 bd cf c9 cc 3c 93 79 8f bd
       0.08545713 -0.03554722 0.024998574 -0.0700561
000060 02 5f cb bc dc 0a 87 3c 88 39 26 bd 8d 16 4f bd
       -0.024825577 0.01648467 -0.04058221 -0.050558615
000070 c0 70 4f bb ea 69 f4 3b 8b d7 8a 3c d3 cf 0f 3c
       -0.0031652898 0.007458915 0.016948482 0.0087775765
000080 7c 36 18 3d 86 f7 b6 bd 46 85 3d 3d 79 e2 9b 3d
       0.037161335 -0.0893393 0.046269678 0.076115556
000090 5a f4 78 bd d8 0d a9 3b 1f c6 9a 3d cd 51 e9 3c
       -0.060779907 0.005159121 0.0755732 0.028481388
0000a0 4d 0a 94 3d 23 67 c4 bc c7 ae 23 bd 25 b5 9d bd
       0.07228527 -0.02397496 -0.039961603 -0.07700566
0000b0 a3 d2 13 bd e8 52 2d 3d 7a f3 81 bd 7d 09 64 3d
       -0.03608955 0.042315394 -0.063452676 0.05567311
0000c0 48 92 5a 3d 2e 33 be bd 90 47 52 bb 21 f6 9e bd
       0.05336216 -0.092871055 -0.0032086112 -0.07761789
0000d0 2a 48 0d bd 69 d8 6b bd 70 c6 83 3b c0 4d b1 3c
       -0.03449265 -0.05757943 0.0040214583 0.02164352
0000e0 4d ac 77 3d 50 5a a1 bc f2 d2 ad 3d 05 e5 81 3d
       0.060467053 -0.019696385 0.084875 0.0634251
0000f0 18 34 92 bd 2e ac 27 bd fd c8 30 3d 88 b3 a7 3d
       -0.07138842 -0.040935688 0.043160427 0.0818854
000100 f7 51 6d bd 68 1d 6c bd dc dc 26 bc 8a 05 ab 3d
       -0.057939496 -0.05764523 -0.010184493 0.08350666
000110 4d 7f d2 bc b9 15 90 bd 4c 05 4d 3d 30 08 4e bd
       -0.025695467 -0.07035393 0.05005388 -0.050300777
000120 47 6e 89 3d 5c 9c d7 bc 37 64 b2 bc ea 6c f0 3c
       0.06710487 -0.026319675 -0.021776302 0.02934881
000130 15 92 6d bd e0 8b 0b 3d 09 9b 51 3d 61 92 04 3d
       -0.058000643 0.034068942 0.051173244 0.03236616
000140 a2 2f 38 bd 87 94 c3 bc d9 3c c9 bc 05 ad 4d bd
       -0.0449673 -0.023874534 -0.024565147 -0.050213832
000150 95 e8 cc bc da 8b 54 bd 5f 74 5f 3d 24 fd 19 bd
       -0.025013248 -0.051891185 0.05455434 -0.03759493
000160 00 73 7a 3d a4 c9 d4 3a 38 39 18 bd 57 46 b0 3a
       0.06114483 0.001623441 -0.037163943 0.0013448697
000170 24 56 b2 bc b1 85 99 bd c1 0e 50 3c d7 6b 26 3d
       -0.02176959 -0.07496203 0.01269883 0.040630188
000180 be 2f 4c 3d c3 a5 8d 3d 21 f2 6a bc b8 26 40 3c
       0.049850218 0.06916382 -0.014339955 0.011727981
000190 69 78 46 bd bb 2c 4e bd ad a1 c8 3d 52 ba 8d 3d
       -0.048454676 -0.050335627 0.09796462 0.069203034
0001a0 24 37 9e 3d 55 d2 37 3d 9f 37 ef bc 80 7d ad 3c
       0.07725361 0.044878323 -0.029201327 0.021178007
0001b0 e5 68 4b bd 55 39 dd 3c a2 4f 01 bd ab ac 34 3d
       -0.049660582 0.027004877 -0.031570084 0.04410998
0001c0 51 4d 67 bc e8 7c 8d bd ee d1 3e bc 43 80 99 bc
       -0.014117555 -0.069085896 -0.011646731 -0.018737918
0001d0 c9 75 29 3d 55 fd 33 3d d1 e0 12 3b 4a f2 fb 3a
       0.041372094 0.043942768 0.0022411833 0.0019221988
0001e0 bb 94 f5 37 0c b9 45 3d 0d 66 a4 bd dd c8 23 3c
       2.9275534e-05 0.048272178 -0.08027277 0.00999662
0001f0 93 89 53 bd 61 ee ab bd d8 5d 8c 3a 0e 30 9e 3d
       -0.051644873 -0.083950765 0.001070912 0.077240095
000200 e8 3c 8f bc 2b 79 7d bd 41 0b a3 bd 78 3d 38 3d
       -0.017485097 -0.061883133 -0.07961131 0.044980496
000210 93 f2 d6 3c 3f ea a9 3b 0f e9 76 3d 4a f8 9e bd
       0.026238715 0.005185395 0.060280856 -0.07762201
000220 9a 80 dd bc ec c5 02 bd 85 1f e1 3c 1d 06 88 3c
       -0.027038861 -0.031927034 0.02748085 0.016604478
000230 1a ce 1b 3a 57 9a 5c bd 3a 36 c8 bd 0d 92 35 3d
       0.0005943492 -0.053858127 -0.09775968 0.044328738
000240 2e 3c b9 3c 81 39 87 bd 5d 21 9d 3c 36 e8 1d 3d
       0.022611704 -0.06602765 0.019180948 0.03855153
000250 29 20 1d 3a be 68 26 bd ef 43 ca bd 13 bd 39 bd
       0.0005993867 -0.040627234 -0.098762386 -0.04534633
000260 13 10 66 3d fe d0 a2 bd 5f 63 8c 3d 12 fd c4 bd
       0.056167673 -0.07950018 0.06854891 -0.09618582
000270 78 89 94 3c 31 9b 11 bd 13 b6 34 bd e7 9f d9 bc
       0.018131956 -0.035548393 -0.044118952 -0.026565505
000280 0a db ee ba 2b 44 a5 3b 06 8f 8c 3d e1 ff d9 3c
       -0.0018223238 0.0050435266 0.06863217 0.02661127
000290 9b 77 75 3c 7a 4e 7c bd 0a 40 d3 bb c9 3b 88 bd
       0.014982129 -0.06159828 -0.006446843 -0.06652028
0002a0 f6 cc 98 3b b2 b2 51 3a 6b 13 5f 39 91 a7 bc bd
       0.004663105 0.0007999345 0.00021274171 -0.09211648
0002b0 c5 91 8e bd 17 96 93 bd dd 98 3e bd 84 bb 28 bd
       -0.06961397 -0.07206362 -0.0465325 -0.041194454
0002c0 fa cc f1 bc 10 8b d5 3b e2 2c b0 bd a7 8a 87 3d
       -0.029516686 0.0065168217 -0.08602311 0.06618243
0002d0 e8 c3 a8 bd 9e 9a 06 bd 7a b6 80 3d 5c f3 e4 3c
       -0.08240491 -0.0328623 0.06284805 0.027948074
0002e0 4e 52 e0 bc 8e 5b bd 3c 7f 17 22 bc 7b 05 19 bd
       -0.027382996 0.023114946 -0.009893297 -0.037358742
0002f0 14 11 a7 38 20 41 8f bd ca 0f 5c bd ac 18 16 bd
       7.9663616e-05 -0.069948435 -0.053725995 -0.036644623
000300 ee 7f 41 3d 57 48 a4 39 c8 9c 92 3d c2 ed 7f bd
       0.047241144 0.00031334415 0.0715881 -0.062482603
000310 9e 2b 4d bc f0 e8 57 3d b1 34 85 bd 15 17 a8 bd
       -0.012522606 0.05271238 -0.06504191 -0.082075275
000320 53 5a 52 3d 0d 7a d6 bc eb 32 23 bc 36 a2 96 3d
       0.05135567 -0.026181245 -0.00996087 0.07355158
000330 e1 0d 6c bc e0 2c b6 3c 4e 28 13 3c 3e 0d f3 bc
       -0.014407606 0.022238195 0.008981777 -0.0296694
000340 76 a6 52 bd 36 89 84 bd 9b 28 51 3c 9d 67 c8 3c
       -0.05142828 -0.064714834 0.012766029 0.02446347
000350 05 69 ca bd 57 50 a6 bd 12 e8 90 3b 6b 15 b4 3c
       -0.09883312 -0.08120792 0.004422196 0.02198287
000360 82 25 33 bd f5 b2 a0 bd 74 de 11 3d 02 56 a1 bc
       -0.043736942 -0.07846633 0.03561254 -0.019694332
000370 c4 cb 5a bd 24 e8 a6 bc 03 48 8e bd 9c 5a 92 3d
       -0.053416982 -0.020374365 -0.06947329 0.071461886
000380 e3 79 73 3d 2b b0 73 bd 97 10 47 3c c1 51 c5 bc
       0.059442412 -0.05949418 0.012149951 -0.024086835
000390 58 8a 18 bd 14 97 16 bd 4e d0 17 bd 55 b3 81 ba
       -0.03724131 -0.036765173 -0.03706389 -0.0009895364
0003a0 c5 f5 87 bd 97 7a bf bd 2e 04 c3 bd 88 3e 58 bd
       -0.06638674 -0.09349554 -0.095222816 -0.05279401
0003b0 06 87 89 3d ec 98 8f 3d 4b e2 7b 3d f4 ef 51 3c
       0.06715207 0.070115894 0.061495107 0.012813557
0003c0 b9 55 8b bc 18 8a 7f 3d 4b e0 80 bd 85 a8 35 bc
       -0.01700865 0.062387556 -0.062927805 -0.0110875415
0003d0 b5 e5 e1 3c 2f c9 50 bd 22 9f 61 3c 70 83 99 3d
       0.027575353 -0.050973114 0.01377085 0.07495773
0003e0 fe ed 93 3d 13 d3 40 bb b9 f5 80 bc a1 74 5f 3d
       0.07223128 -0.0029422685 -0.01574217 0.054554585
0003f0 bf 13 4e 3d 26 8b 8e 3d 05 e3 80 bd 80 5b 55 bd
       0.0503118 0.06960134 -0.062933005 -0.052089214

fc2.bias f4 [64]
000000 42 7b 00 3d 95 b4 14 bd c8 3f 0d 3d 03 d4 31 bc
       0.031367548 -0.03630503 0.034484655 -0.01085377
000010 f4 05 50 bd 79 a2 1b ba 6d 64 63 3d f0 e2 3c bc
       -0.050786927 -0.0005936991 0.055515695 -0.0115287155
000020 17 1d aa 3d af be 20 bd f3 2a ca 3d b5 7c f1 3b
       0.0830633 -0.03924435 0.09871473 0.0073696026
000030 5f 28 04 bd 61 23 7d bc c4 32 b2 3d 9c 6a 9c 3b
       -0.032265063 -0.0154503295 0.08701089 0.004773451
000040 82 a6 8f 3d 9d 8b a8 bd e7 32 5c 3d 95 03 30 bd
       0.07014181 -0.08229754 0.05375948 -0.042972166
000050 e9 ac 8b bd 91 e2 f2 3b a3 e0 c3 3c be 97 90 bc
       -0.06820089 0.0074122627 0.023910826 -0.017650481
000060 55 ad 3c 3d 4a 18 5f bd 10 78 c6 bc d3 21 42 bd
       0.04606374 -0.054466523 -0.024227172 -0.04739554
000070 91 0e 48 bd b0 5d b4 bd dc 9d f6 bc 24 6e 55 bd
       -0.048842017 -0.08806932 -0.03010457 -0.05210699
000080 95 85 cd bd dd 16 a8 bd 14 b5 81 3d 91 0b d4 3b
       -0.100352444 -0.08207486 0.06333366 0.0064711054
000090 c8 ac 53 3d 6a 6c f7 3b 8c b3 14 3d 20 02 3b bc
       0.05167845 0.0075507658 0.03630404 -0.011414081
0000a0 a0 63 ea 3b 63 e0 a5 bc 8e 02 3b bc cb ee 80 3d
       0.0071529895 -0.020248597 -0.011414183 0.06295546
0000b0 71 33 8c bd f9 18 2b 3d 71 be d3 bc b9 9c bb bd
       -0.06845749 0.041771863 -0.025847645 -0.09160752
0000c0 0c e6 95 bd c9 d7 f4 3c 12 90 b4 bb fe d2 7c 3d
       -0.073192686 0.02988805 -0.0055103386 0.061724655
0000d0 d0 e0 6c bd 9b e9 27 bd 9c e1 bb bd 08 46 04 bd
       -0.057831585 -0.040994268 -0.09173891 -0.03229335
0000e0 f7 d2 51 bd 1a 13 9d 3a 5c a4 1e bd 89 62 6d 3d
       -0.051226582 0.0011983842 -0.038730964 0.0579553
0000f0 5f 42 50 bd 9e db 8f bd db 04 a9 39 c3 37 64 3d
       -0.050844546 -0.070243105 0.0003223781 0.05571724

fc3.weight f4 [1, 64]
000000 3a 6b da 3d c5 8a d3 bd 14 1a b2 bd f4 d5 a8 bc
       0.10664983 -0.103292026 -0.0869638 -0.020609833
000010 f8 4d 45 bc b1 14 d1 bd ac 8c 8f bb 27 13 a6 3d
       -0.012042515 -0.10209025 -0.004380783 0.08109122
000020 34 34 ad 3c d7 65 74 3d 3c 16 f5 3c 71 88 e1 bd
       0.021143056 0.059667435 0.029917829 -0.11012352
000030 61 c5 54 3c 93 1e 30 3d 18 db 70 3d 5c 39 e9 3d
       0.012986512 0.042997908 0.058802694 0.113878936
000040 71 12 fc bc 2b 1f 64 bc 3d 71 e7 3d d6 2b 8e 3d
       -0.030770512 -0.013923447 0.11300895 0.06941955
000050 32 23 bd bd 79 e6 bb bd 07 cc 09 bd 3d 92 cc 3d
       -0.092352286 -0.091748185 -0.03364184 0.0998883
000060 10 bf 24 bd a8 34 8f bd 16 e7 61 3d f9 02 c6 bc
       -0.040221274 -0.06992465 0.05515202 -0.02417134
000070 76 c0 63 3d 94 4e a9 3a 00 b0 b9 3d f1 16 85 3a
       0.055603467 0.0012917095 0.090667725 0.0010153932
000080 0e 0c f1 bc c3 18 8c bc b0 8d 40 3d 05 e5 9b bd
       -0.029424693 -0.017101651 0.047010124 -0.076120414
000090 8d 47 d9 3d a8 3a 20 3d 6f 09 a4 bd 62 80 73 bd
       0.1060935 0.03911844 -0.08009612 -0.059448607
0000a0 d9 6f c7 bd fb 01 13 3d 23 6b 1b 3c 8b 77 ea 3c
       -0.0973813 0.03589056 0.009485993 0.028621456
0000b0 ce 8f cc 3d b4 29 a4 3d ea 84 8e b9 72 e7 c0 bd
       0.09988366 0.08015767 -0.0002718338 -0.09419145
0000c0 63 70 c4 3b 04 52 0e bc 56 e1 b3 3d 2d 85 b1 bd
       0.005994843 -0.008686546 0.08783214 -0.086679794
0000d0 f3 20 85 3c 9e af ab bc 1e 4a 16 bd 43 71 24 bd
       0.016251063 -0.020957764 -0.036691777 -0.040147077
0000e0 76 9b 44 3d 3c c9 a4 3b 19 13 04 3d 11 81 be bd
       0.04799982 0.005028872 0.032244775 -0.09301961
0000f0 82 fb aa bc ed 16 ac bd 82 1c ba 3d 91 d4 91 bb
       -0.020871881 -0.0840281 0.09087469 -0.0044503887
