models/rebel/policy_net.pth.tar (torch, 172092 bytes, 6 tensors)

fc1.weight f4 [128, 260]
00000000: 913c 70bd 189b 5fbd 91fa f6bd 3c19 49bd
00000010: 6bd7 efbd 0f62 babd b3ec 08be d36b 89bd
00000020: 551e 263d 362c 74bd 6bfb 223d 1558 24bb
00000030: 4508 8ebc b349 60bd 1934 08bd 3947 93bd
00000040: 13ee 8b3d 422b f33c 0034 0abc a4c9 143d
00000050: 5816 aebd 0a8c 99bd 9b1e 20bd 6d2d ecbc
00000060: cea7 cbbd 62a4 9abd e414 f3bc 1f17 bbbe
00000070: a6d2 563d ecf4 a6bd e525 603b 9efa e7bd
00000080: 934d f93c 6840 8bbd ff9e 3ebe 269a 8fbc
00000090: a7f5 1cbe ab61 3cbc 5b80 23bd 77b9 ebbd
000000a0: 7e88 b2bd ed4e 8f3b 9b16 7a3d 949a 053d
000000b0: 056f 05bc b616 b2bd 6797 22bd bcdf c1bd
000000c0: e2ca 923d 79a2 93bd 5aed fabd 7e35 743c
000000d0: ae59 08be c11e 0b3d 5b1f 88bc f3e6 77bb
000000e0: d2ee 03bd eca3 49bd 8e55 41bc a90d 84bd
000000f0: fdc8 03be b9cf 98bd efbb 82bd 14ed 9cbd
00000100: a651 423d 6bf8 403d 8d08 363e f9da a3bc
00000110: 3a7b 84bd e9d7 0b3d 722e 0fbc a8e6 e63d
00000120: 572c c13d cd5c c0bd 43be d1bd d6bf e3bd
00000130: 1cf7 e5bd 37d0 1a3d 7dee 673b f81f 023d
00000140: d5f5 f3bc e4c2 3cbd fc96 843d 1a75 f3bc
00000150: 58ee 28bc 4535 a53c 426f 8e3d c86a 6abd
00000160: 8e77 7ebd 2301 993d 1acb 18bb de75 86bd
00000170: bc1e c73b e6f2 883c 14cf d5bc 31b3 2fbd
00000180: 61a0 1c3d 0c2c ffbc 4607 26bd a3e8 a0bd
00000190: d79c 153d 9ca6 d83d ca0a cf3d 2ac5 6a3d
000001a0: 4028 d83c 705b f23d bde5 15bc 2b47 313d
000001b0: 44cf a6bd 3c6a 05be 8078 f53d 0066 70bc
000001c0: 82fa d03d a518 17bd 1171 203c dd0e c53c
000001d0: d128 1abc 2ee4 96bd a8b6 3bbd 8956 66bd
000001e0: 7519 c63d be73 aa3c 20da 8c3d d5ae fdbc
000001f0: 317c a63d 6da2 963d 7a26 db3d f8c2 59bb
00000200: 35d5 243e 2fa2 c53d d10b f53d 88a9 0a3e
00000210: f6f0 0e3d 18c2 e33d f41d 853d 144f e43d
00000220: 6bdb 52bd 318a 7cbd 815b 913c 8df5 5dbc
00000230: 8b13 d83d fc69 7d3d f40e 1a3e 223b d73c
00000240: 8861 2e3e b165 1e3e 1590 413e 3f4a 833e
00000250: ed17 573e 9c95 923d cc29 a23d 22b8 fb3d
00000260: fa95 e83d 39f4 f63d 98b7 383e a281 713d
00000270: 53c3 073d 2e8c b23c b817 a53c 2e56 09bd
00000280: 2b1a 143e 8b79 d03d f240 d03d 446a 1d3d
00000290: 65ed e83d aaf7 c93c 7459 0a3d 8540 fb3d
000002a0: 6e3b 773d e43b 153d 5486 b73d 6867 9d3d
000002b0: 3887 d13d 0cbd 883d c88b 073d 3341 dd3c
000002c0: 38c6 3dbd 902f b53c c69f 443d cb25 6fbd
000002d0: 9b66 e13d c017 fe3d c1b6 dc3d 95c7 a33d
000002e0: 138a fa3d 6cf0 f93d 7178 ea3d d967 933d
000002f0: ebc1 d53d ab6b d83d 585f 953d 5760 993d
00000300: 3021 f43d 35f6 103e 32a7 8c3d 75c1 843d
00000310: df3b 6d3a 27ad 72bb b547 743c 245f 8e3c
00000320: c568 b23c 4d98 3b3d 03db 153e 1970 d53d
00000330: b8fe 7f3d e730 1dbd 757f ea3c a2be 56bb
00000340: a808 df3c 3f4e c03d 1466 e63d e50d d03d
00000350: 60b6 d33c 7aa3 313d a127 913d 2708 103e
00000360: 43fc 123c b291 83bc bd2f d23c 6581 c1bc
00000370: cd16 3cbe f136 5abd 863f 86bc 1dbe 52bd
00000380: 45d1 bdbd d32b 8cbd 36f8 123d da11 3bbc
00000390: f10d 90bd cd42 5cbd 0b78 a9bd c383 a13b
000003a0: 76be 20bc 9834 033e 0059 6d3c d09b 76bd
000003b0: 0864 8cbd f092 d7bd a01b bebd c829 ecbc
000003c0: 2a95 cfbd 784a aabc 4a2f 90bd b9dc 6a3c
000003d0: d71d c1bd e440 ef3c 3622 c2bd 1ced 07bd
000003e0: 9c86 20bd b747 c03c 8fb1 81bc 79d6 bebd
000003f0: 9ee2 c5bd 12de 413d b3b4 18bd 5cc2 afbd
-0.05865151 -0.05459127 -0.120595105 -0.04909633 -0.117110096 -0.091007344 -0.13371544 -0.06710019
0.04055627 -0.059612475 0.039790552 -0.0025076915 -0.017337928 -0.054757785 -0.03325281 -0.07191319
0.068325184 0.029683713 -0.008435249 0.036325112 -0.085003555 -0.074974135 -0.039091688 -0.028830254
-0.099441156 -0.07550885 -0.029673047 -0.36541077 0.052446984 -0.08152184 0.0034202274 -0.11327098
0.030432498 -0.06799394 -0.1861534 -0.017529558 -0.15328084 -0.011497895 -0.03991733 -0.11509984
-0.0871744 0.0043734224 0.061056715 0.03261812 -0.008144145 -0.08695738 -0.03969517 -0.09466502
0.07167603 -0.072087236 -0.122523025 0.014905332 -0.1331546 0.033964876 -0.016616514 -0.0037826865
-0.03221018 -0.049228594 -0.011800183 -0.06447918 -0.1286964 -0.07461495 -0.06383502 -0.076624066
0.047441147 0.04711191 0.177767 -0.020001875 -0.06468816 0.034141455 -0.008739101 0.11274463
0.09432285 -0.093927 -0.10241368 -0.11120574 -0.11228773 0.037796225 0.0035389953 0.03176877
-0.029780308 -0.0460843 0.064741105 -0.029718924 -0.010310732 0.020167002 0.069548145 -0.05723074
-0.062125735 0.0747092 -0.0023314417 -0.0656545 0.006076662 0.016717386 -0.02609972 -0.0428955
0.038238887 -0.031148933 -0.04053428 -0.07856872 0.036526527 0.10578653 0.1010948 0.057316937
0.02638638 0.118338466 -0.009149012 0.04328076 -0.081450015 -0.13028806 0.11985874 -0.014672756
0.102040306 -0.036888737 0.009792582 0.024054939 -0.009409145 -0.073677406 -0.04582849 -0.05623487
0.09672824 0.020807143 0.068775415 -0.030967155 0.081291564 0.07355199 0.10700698 -0.0033227783
0.16096957 0.09650075 0.119651444 0.13541234 0.034897767 0.11121005 0.06499854 0.111478955
-0.051478785 -0.061655227 0.017743828 -0.013547313 0.105506025 0.061868653 0.15044767 0.026273314
0.17029393 0.1546848 0.18902619 0.25642583 0.2100522 0.07157442 0.07918128 0.1229098
0.11356731 0.120583005 0.18038785 0.058961518 0.03314526 0.021795359 0.020152912 -0.033529453
0.14463107 0.101794325 0.10168637 0.03843142 0.113734044 0.024654228 0.033776715 0.122681655
0.06035941 0.03643407 0.08961168 0.07685739 0.10230869 0.06676683 0.03309229 0.027008628
-0.046331614 0.022117406 0.048003934 -0.05838565 0.110058986 0.12406874 0.10777045 0.079970516
0.12233367 0.1220406 0.114487536 0.07197542 0.104373775 0.10567411 0.07293576 0.074890785
0.119203925 0.1415642 0.068678275 0.064822115 0.0009049754 -0.0037029476 0.014909674 0.017379351
0.021778474 0.045799542 0.14634328 0.104217716 0.062498778 -0.038376715 0.02862523 -0.0032767435
0.027225807 0.09389924 0.112499386 0.101589 0.0258438 0.043368794 0.07087637 0.1406561
0.008971277 -0.016060684 0.025657529 -0.02362127 -0.18368073 -0.053275052 -0.016387712 -0.051450837
-0.092684306 -0.06844296 0.035881244 -0.01141783 -0.07033909 -0.053774644 -0.082748495 0.0049290373
-0.009811034 0.12813032 0.014486551 -0.060207188 -0.06855017 -0.10526073 -0.09282613 -0.028828517
-0.10135873 -0.020787463 -0.0704027 0.014334851 -0.094295196 0.029205747 -0.094791815 -0.03318511
-0.039190874 0.023471696 -0.015831737 -0.09318251 -0.096623644 0.047330923 -0.037281703 -0.08581993

fc1.bias f4 [128]
00000000: 7941 74bd b527 223d 986e eabd 8e1f 633b
00000010: 145a bcbc b127 a0bd 4502 24be 73e7 e4bd
00000020: ce5f d6bd 4070 e3bd 0630 3e3d 9476 1fbe
00000030: c96a d6bd cd7d 08be d7b3 903d b088 023e
00000040: 2bd7 bf3c c4fd 0dbe 9de9 d8bb a479 debd
00000050: 2992 86bc 611f 573d 7839 5b3b 9a85 51bd
00000060: 6ad5 febb 7d21 eebd 5057 9cbc c2c7 da3c
00000070: 7348 4fbe f96a c03c 1fc4 df3d 9e75 6e3c
00000080: 218c 26be 4750 d2bd 2d4d 2ebd bf52 a23d
00000090: d350 a7bd 9d9f bbbd 247a 0cbd 1ebb 9bbb
000000a0: 0a04 4fbd 3dbe 203d 7331 eabd f8fa d1bd
000000b0: 0e71 a3bd f105 8bbc 883d 87bc a284 b23d
000000c0: 81ec 0abd 232c 47bd 0d63 7fbd 4b34 40be
000000d0: 5cf3 70bd abd3 c5bd f016 0abd 09bc 063e
000000e0: 8e58 25bb 7423 e5bc 0a5f d3bd e549 62be
000000f0: 7097 d4bd 5137 09be 4976 ccbd a904 94bd
00000100: 39ac 1a3c c2d3 c5bd ec72 91bd ec41 20be
00000110: 7e52 87bd ef40 10be 074c 7d3c 6743 e7bd
00000120: 4e09 9fbd 8272 213d 48cb b1bd c26c b23d
00000130: 00f1 b8bd a289 fcbd 06f8 1ebe 95a1 42bd
00000140: ae62 cabd d043 99bd d0f9 99bd 6c05 24be
00000150: 78ce b6bd dd59 62be 8d12 74bd 27fe 323d
00000160: 50bc 2b3d 7882 d1bd d8fd 07bc 2289 13be
00000170: 6dd3 a5bd 04c3 a2bc 1b77 1fbd 73c6 9dba
00000180: 79c7 b0bd 6387 f83c 1de7 babc 0686 4cbe
00000190: 2f77 dc3c 86c6 093e bfb4 cabd acdd c8bd
000001a0: 9772 62be 45e6 04be bfab 4d3c 034c 23bd
000001b0: a5fb 17be 888c 0abd 3518 7dbd f017 b83d
000001c0: df7c a93c 0a71 eebc 8237 15be 64eb 87bd
000001d0: 95df 02be 6288 633d 03a8 7fbc d662 ddbd
000001e0: dde6 033d 8da2 adbc 81bf 9cbd 7e25 7b3c
000001f0: eca7 0abe d5b5 d3bc 7d3d 38bd 28a3 5cbd
-0.059632752 0.03958865 -0.11446875 0.003465626 -0.022992171 -0.078200705 -0.16016491 -0.11176958
-0.10467492 -0.11105394 0.046432517 -0.15572578 -0.104695864 -0.13329239 0.07065552 0.12747455
0.02341803 -0.13866335 -0.0066196457 -0.10863045 -0.016427116 0.05252016 0.0033451002 -0.051152803
-0.007776906 -0.11627481 -0.019084603 0.02670658 -0.20242481 0.023488509 0.10926079 0.014554409
-0.16264392 -0.10269218 -0.04255407 0.07925939 -0.08169713 -0.09161303 -0.03429617 -0.0047525307
-0.05054096 0.039243925 -0.11435213 -0.102529466 -0.07980548 -0.016970607 -0.016508833 0.08716704
-0.033916954 -0.048626076 -0.06235032 -0.18769948 -0.058825836 -0.09659513 -0.03371328 0.13157667
-0.0025229785 -0.027971007 -0.10320862 -0.22098501 -0.10380447 -0.13400008 -0.099834986 -0.07227451
0.009440475 -0.0965953 -0.07101998 -0.15650147 -0.06607531 -0.1408727 0.015460021 -0.11292153
-0.077654466 0.039415844 -0.08681351 0.0871215 -0.09030342 -0.12330939 -0.15524301 -0.047517378
-0.09882103 -0.07483637 -0.07518351 -0.16017693 -0.089260995 -0.22104593 -0.059588004 0.04369941
0.041927636 -0.10229963 -0.008300267 -0.14407781 -0.08096967 -0.019868381 -0.038931947 -0.0012037292
-0.086317964 0.030337995 -0.022815282 -0.19973001 0.0269123 0.13454637 -0.09897756 -0.098079056
-0.22114025 -0.12978466 0.0125531545 -0.039867412 -0.14842089 -0.033825427 -0.061790664 0.08988941
0.020689426 -0.029106636 -0.14571956 -0.06636694 -0.12780602 0.055549987 -0.015604022 -0.10809867
0.03220259 -0.021195674 -0.07653714 0.015328763 -0.1354062 -0.02584354 -0.044980515 -0.053866535

fc2.weight f4 [64, 128]
00000000: 3665 d6bb 1137 0ebe 7f9e 203d 5397 74bd
00000010: 4e34 c43d eae1 a93d 9f81 b5bc e95c ce3d
00000020: 86d7 bbbd 21c3 ddbd a633 26be 6a9e a5bd
00000030: 4665 993d 4c2b c33d 1e11 333d ae5a 3b3e
00000040: cc2f 15bd 464a e2bd 9403 443d 9cb2 7b3e
00000050: 5867 203e 0109 11be 934e 8f3d 2fd3 7abc
00000060: e1e1 51be 831b 3abe e581 1b3c 1a74 66bd
00000070: c842 cebd b906 c6bd 67db 043e 97db 923d
00000080: e782 75bc 5349 6c3d 926d 7bbc d085 6abc
00000090: ee36 023e 2bee 29bd 7b53 e33b c424 2f3d
000000a0: e449 6ebe 4aa4 45bd b2c6 e6bd f811 2c3d
000000b0: 0f9c cbbc 2af6 babd 5686 9cbe c82e c2bd
000000c0: 9a16 8c3b 68d5 013e 3eac a4bb 4be8 80bd
000000d0: 0070 e3bd b2a3 803d 2380 35be f45f e63d
000000e0: 9a81 b7bd ccb1 a63d 7e3e 43bc 9cc9 bc3c
000000f0: 2c2b a33d 55f9 7a3d afad d5bd e1da b43d
00000100: 1aa9 4bbd 9eec 623d ba26 f1ba deb7 3b3c
00000110: 9fe7 c7be 4745 70bd 52f5 bdbd 4014 9c3d
00000120: cdcd 693e 367b 2f3e f6a4 f43c 5f23 55be
00000130: 2650 d0bd 9378 8cbd 95cb 50be caae bc3c
00000140: e58b db3c a18d 23bd 6a51 dd3c c24f 11be
00000150: 7a90 4a3b 98aa 303e dda3 36be 44d9 183e
00000160: 2039 c93d 450e 2abe b98f 233e dec9 f6bd
00000170: 2ba5 cd3d 4b3b 9bbd 43b3 213d 4278 e9bb
00000180: 601e 6b3d e3a0 f3bc d68d febb df5e 9ebd
00000190: d4e8 6dbd 4c3a 3ebe 3ab9 4fbc eb39 a8bd
000001a0: 0619 123c 0f55 ab3d 6075 8dbe b6b5 ae3d
000001b0: 4ec6 a3be 2036 95bd cd0f d9bd 98c0 65be
000001c0: 0d47 24be 1026 0a3e 56ca ddbd d58e c4bd
000001d0: e7a1 64be 3d86 9f3d c928 84bd f38d fa3c
000001e0: cfda bb3d d809 90bd f3ad 6b3d 365a 063e
000001f0: 2589 e4bd b7a9 9abd 5ae8 6cbc cf3d 0ebe
00000200: 6fe0 72bd 0464 95bd 75f3 f4bd 5ada cdbd
00000210: a503 a5bd a822 e8bd 464c 33be cfd7 96bc
00000220: 6e9a acbd 9b04 b2bd dbf2 72bc 4f6d 423c
00000230: fd62 88bc 964f 8bbd 5f61 f7bd f61b 41be
00000240: 3bf0 d6bd 3884 86bd c246 9c3c 2e76 57bd
00000250: 864b 08bd 7003 3b3d 0745 56bd 38bf 19be
00000260: 4041 cabc 6fc4 85be 1771 2ebd 9aab 64bd
00000270: 037b 563d 9c2b 7a3d 2f47 e3bd 4779 88be
00000280: 109d 8fbc a587 9abc 67d5 5fbd 014b 0b3e
00000290: ff4b d63c 4837 263c 119e 603d 27c2 dbbd
000002a0: 4308 ee3d 263a e4bd 1988 6e3b 21ca 473d
000002b0: d578 5cbc 12ae 0e3d baf4 94bc 267f 74be
000002c0: 2930 88bd 78da 093e 7bdb c03d 7f78 35be
000002d0: a579 f0bd fe52 dcbc 5310 9fbd 3729 ef3c
000002e0: 0fec 87bd 1af2 543d 8e5e 17be f161 123d
000002f0: 1211 a7bb 55f7 81bd 679a 82bd e5b2 96bc
00000300: f3a8 0abd 1805 86be c363 2fbe 49a9 aabd
00000310: dd65 39bc e828 783d 8973 e13c e99b 7cbe
00000320: 7a0e c0bd 8165 c4bd 32df c6bd 31fb 35be
00000330: 7a75 a9bd afc8 123b 8946 a8bd bb22 81bd
00000340: 9f6f b1bd d92c d6bb 81e6 60be 3923 893d
00000350: f6f8 903c 100a 1c3c e1d9 3e3d dd33 2dbd
00000360: e5eb 023d a55d bb3d 2eb3 1bbd e1d0 c0bc
00000370: 568e ebbc 9c34 94bd 4ffa 98bd c2c6 bcbd
00000380: 3a88 efbd e0df 0e3d e0b1 da3d a096 3e3d
00000390: 60da 993a da07 aebc b960 0dbe 07c4 943d
000003a0: 7966 b83d b945 31bd f0b5 a0be 234c be3d
000003b0: b0db 1cbd f2d0 98be 8e4a a03d ac45 b0bd
000003c0: 1946 b4bd 1b78 563c 9122 813c 1766 93bd
000003d0: d5ef 4cbd d978 87bd d7a7 fcbd bdb9 1a3c
000003e0: 8060 293d d332 a0bd 5786 f63c 9064 70bd
000003f0: 331a 26bd 5879 e1bd a6fd 70be 3b0c 83bd
-0.006542827 -0.13888194 0.039213654 -0.059714627 0.09580289 0.08295043 -0.022156535 0.10076315
-0.09171967 -0.108282335 -0.1623064 -0.08086856 0.074900195 0.095297426 0.043717496 0.1829631
-0.036422536 -0.11049323 0.047854975 0.24579853 0.15664423 -0.14163591 0.06997409 -0.015309139
-0.20496322 -0.18174557 0.0094914185 -0.056263067 -0.10071331 -0.09669251 0.1297432 0.0717079
-0.014984823 0.057687115 -0.015345948 -0.01431413 0.12716267 -0.0414869 0.006937442 0.04275967
-0.23270375 -0.04825238 -0.11268367 0.042009324 -0.024854688 -0.09128983 -0.3057124 -0.09481579
0.0042751553 0.12679064 -0.0050254157 -0.06294306 -0.11105347 0.062812224 -0.17724662 0.1124877
-0.089602664 0.08139381 -0.011916755 0.023045354 0.07967219 0.061272938 -0.10433518 0.0883081
-0.049721815 0.055401437 -0.0018398382 0.011457412 -0.390439 -0.058659818 -0.09275307 0.0762105
0.22832413 0.17136845 0.029863816 -0.20814274 -0.10171537 -0.06858935 -0.2039016 0.023032565
0.026800105 -0.03992999 0.02701636 -0.14190581 0.0030908869 0.17252576 -0.17835946 0.1492663
0.09825349 -0.16607006 0.15972795 -0.12050222 0.10041269 -0.075796686 0.039477598 -0.0071249316
0.057402015 -0.029739803 -0.007768373 -0.07732939 -0.05808337 -0.18576926 -0.012678439 -0.08214172
0.008917099 0.08365833 -0.27628613 0.08530752 -0.31987232 -0.07285714 -0.10598717 -0.2243675
-0.16042729 0.13491082 -0.10829608 -0.095975555 -0.22327386 0.07789276 -0.06453092 0.030585265
0.09172594 -0.070331275 0.057538938 0.1312035 -0.11158971 -0.07551902 -0.014459694 -0.13890766
-0.059296068 -0.07294467 -0.11960498 -0.10051413 -0.08057336 -0.11334735 -0.17509565 -0.018413452
-0.084278926 -0.08692285 -0.014828409 0.0118668815 -0.016648764 -0.06802289 -0.12079119 -0.18858323
-0.10495039 -0.065681875 0.019076709 -0.05260294 -0.03327515 0.045657575 -0.052311923 -0.1501435
-0.024689317 -0.2612643 -0.04258832 -0.055827715 0.052363407 0.061076745 -0.110975616 -0.26655027
-0.017530948 -0.018863508 -0.054646876 0.1360283 0.026159285 0.010145016 0.054838244 -0.10730391
0.116226695 -0.111439034 0.0036397038 0.04877675 -0.013456543 0.034833975 -0.018183101 -0.23876628
-0.06649811 0.13462245 0.094168626 -0.17721747 -0.11741952 -0.026895043 -0.077667855 0.029194457
-0.066368215 0.0519887 -0.14782164 0.035737935 -0.0050984705 -0.06346003 -0.06377106 -0.01839585
-0.03385253 -0.2617576 -0.171279 -0.0833307 -0.01131579 0.060585886 0.027520912 -0.2466885
-0.09377761 -0.09589673 -0.0971054 -0.17771603 -0.0827436 0.0022397449 -0.082165785 -0.063054524
-0.08663868 -0.006536108 -0.2196293 0.06696171 0.017696839 0.009523883 0.046594504 -0.04228579
0.031963248 0.09148721 -0.038012676 -0.023537101 -0.028754395 -0.07236597 -0.074696176 -0.092175975
-0.11695905 0.034881473 0.10678458 0.046530366 0.0011738054 -0.021243978 -0.13806428 0.07263952
0.0900392 -0.043279383 -0.31388807 0.09291866 -0.038295448 -0.29846913 0.0782672 -0.08607039
-0.088024326 0.013090159 0.015763553 -0.071972065 -0.05003341 -0.06614847 -0.123367004 0.0094436975
0.041351795 -0.07822194 0.030093355 -0.058689654 -0.04055233 -0.110094726 -0.23534259 -0.06398817

fc2.bias f4 [64]
00000000: c650 6c3d 245f 95bd ccbd 503e 81ad 183c
00000010: 8e44 c5bd ada1 f8bd cde2 7abe 4ea5 58bd
00000020: a773 913d cceb 00be 8757 b03d 2d4e bbbd
00000030: 1e4d 36bd c54b 4abe 1921 c6bd 15b2 85be
00000040: 9dba cdbd fc3b 5fbe 7120 b33c 0810 453e
00000050: 7505 04bd 1cab d8bd 6bde 89bd 94b1 46bc
00000060: 68e0 b0bd b25a edbd b2af 3bbe d5f6 e0bd
00000070: 13ee 94bd 6776 423d 8765 8cbd ec8a d33d
00000080: e69f 613d 38fa adbd 2017 f5bd 64ff 59bc
00000090: 39f1 e3bc b961 953d 8426 c1bd f826 63be
000000a0: ba11 f8bd 5db5 c9bc d442 ccbd b98d c13c
000000b0: dc22 d63d c48d 0ebe 67a3 2c3c 9304 19be
000000c0: 45b4 2fbe 7955 a9bd 3944 fd3d c644 f5bd
000000d0: 9329 02be d346 96bd de98 78bd 92fe 423d
000000e0: 2f8d 3cbe 432f 99bd 75b5 85bd 3418 223d
000000f0: 86e4 023d e32b abbd 8ffc 4ebe 62f7 65be
0.05769422 -0.07293537 0.20384902 0.00931871 -0.096322164 -0.12140212 -0.2450058 -0.05289202
0.07102137 -0.1258995 0.086104445 -0.0914577 -0.04450714 -0.19755466 -0.096742816 -0.26112428
-0.10045359 -0.21800226 0.021866055 0.19244397 -0.032231767 -0.105795115 -0.06731876 -0.012127299
-0.08636552 -0.115895644 -0.18328741 -0.109845795 -0.072719716 0.0474762 -0.06855302 0.103292316
0.05508413 -0.08494991 -0.11967301 -0.013305519 -0.027824985 0.0729403 -0.094311744 -0.22182834
-0.12112756 -0.024622614 -0.09973684 0.023627149 0.10455868 -0.13921267 0.010537005 -0.14943151
-0.17158611 -0.08268256 0.12366528 -0.11976008 -0.12711172 -0.073377274 -0.06069266 0.04760606
-0.18413232 -0.074797176 -0.06528751 0.039573863 0.03195622 -0.0835798 -0.20213531 -0.2245765

fc3.weight f4 [10, 64]
00000000: 73f4 2fbe e342 5cbd 1cc1 2fbe 468f 93be
00000010: 17b7 923d 0a67 953d c108 113e 2a9e 2a3d
00000020: 8856 6f3d a4f2 83be c47b 8a3d 4845 0f3e
00000030: 8417 d7bb cf3d 043d eed8 31bd 1a4c 9b3c
00000040: bc64 cf3d 347b f33d 6aeb 4dbc 5d91 03bd
00000050: 11b4 5e3e 128c 813d fee8 6ebe 76bb c9bd
00000060: 82d0 18be 9361 613c 0bda 793d 7fa8 eabd
00000070: 5f52 6ebd 445b db3d eb56 b7bc 9320 2f3e
00000080: 9e2d 223e fc68 95be 80a9 b6bd 618c 193e
00000090: 6c9a 10be ebd4 7d3e 01ec 2b3b a815 acbd
000000a0: 87ae cfbc 1ba8 d63d 2793 56bd 8685 b2bd
000000b0: 900a 95bd 79ce c23d 5d0a 213e 6093 41be
000000c0: ca46 583e 19dd 56bc 9972 383d fc78 9abe
000000d0: 4ba3 313d 6df3 813d 74e3 323e cafb d43d
000000e0: f555 01be d7f8 9b3c 91b6 87bd 562b 4f3d
000000f0: 7f04 323e ac68 493e 74d9 03be 8e29 af3d
00000100: 0f65 4abd 1222 833c e338 e73c a6ec 64be
00000110: 0ca4 6bbd d62a a9be 83e1 053e c200 6cbe
00000120: d540 77be 321e eb3b 702e 353e dede 0c3e
00000130: 7560 ab3e 3e09 1abe c192 74bd 0773 f2bd
00000140: fd7c 3cbc 6b8d 2e3d a1cc 5abe c90c 38be
00000150: 8ad7 92bd e149 123e d823 a5bd 72ad 65bd
00000160: 8f30 033e 52b4 c8bb c6a3 b23d c4bf cdbb
00000170: 6ae4 413d 40aa d73c 9354 0bbe 3fdc 383e
00000180: bd75 81be e722 e53d de86 87bc a6c0 7cbd
00000190: a984 0ebe 3027 2fbe 2973 e23b c7a9 6f3c
000001a0: feeb f43c 1930 89bd 39f0 90be 9426 a3bd
000001b0: 8989 54be cf50 98bd c417 c5bd 786b f1bd
000001c0: 46fc 1abd f6a5 c33d 4431 d53d 0ef9 09bc
000001d0: a62a 9fbd bb3c 3ebe 9b44 6d3e bee1 d9be
000001e0: dc2e bcbe 8f9e 213d 0dfb d8be 80a8 72bc
000001f0: 74a7 343e d055 eb3d 7779 3b3d 3f89 4fbd
00000200: 9bba 163c 1ee0 81bc 5847 b0be 9533 693e
00000210: aa51 b6bd ef38 a2be d81e d53d 2078 c83d
00000220: 7880 a7bb 1385 13be 9f5d 1b3e 1c05 83be
00000230: 9b2a ffbd 9bf7 dc3c 2538 d4bd 3cfc 1fbe
00000240: bafa 94bc d69b a13d aaf3 09be 8ed2 c3be
00000250: 0359 183e 0364 aebe d8dd 53be 4a7d 31bd
00000260: beef ffbd 3b34 3dbe d129 373d 63f7 60be
00000270: e47d 4bbb a257 8bbc 83c9 7bbd 4d2a 1b3e
00000280: 1386 ab3d fdc5 033e e847 16be a8da 463d
00000290: 46ed 46bd beb9 21bf 7e24 54bd 4dba 0e3e
000002a0: c389 ffbd 7bff 00be a55b 4a3c fdae a13d
000002b0: 9c34 273e e69f 5cbd 694a e63c 4458 a3bc
000002c0: b0e9 dcbd 509d 20be 6223 0c3e 74ef a23d
000002d0: 84d5 b73d 8c48 62bd 8c42 273e bddc 6cbe
000002e0: ae79 24be 8394 4abe 267d 5cbe c2a2 0dbd
000002f0: b127 0ebe addf e93d 48f3 01be a7ab 11bd
00000300: 648e 43be 7cf2 b23d 2aff cd3d ccd6 c7bb
00000310: 181f fabd ab2a ab3d 855d 01bd 1a03 9fbe
00000320: 6d1f 9cbe 43f4 cabd 5f52 883d 3a1c 11bd
00000330: 2866 933d 0448 b43d 2702 f73d 9dc3 b33d
00000340: c879 aebe b96e c33c d426 873d 0d5f 08be
00000350: 1928 b2bd 1c3c 8c3d 3d43 c1bd 7d0c 2f3c
00000360: 4a1b c13d 605a 9a3d 1672 b4bc 54e9 8ebd
00000370: 520b 8d3b 0884 86be 6e5f 203c 60a5 a93d
00000380: a20b c9be ff4e a63c 810a dcbd 728e 8c3d
00000390: d3ae a2bd 4035 c5bd 9c86 dc3d bf27 a63c
000003a0: c32a 323e a3b3 223d 1713 e53d 761a 413e
000003b0: c38b 3f3e fa29 03bd 1db6 64be d8f9 f6ba
000003c0: 7cb3 f1bc e0c0 ccbb eca6 1cbe ea7f 603d
000003d0: 6ed7 b4bd e8cc 51be 30e3 80bd 5a62 153e
000003e0: 8780 d8bd 6c20 26be 8808 99be 26fe 313d
000003f0: 5c83 0b3d 54a1 39be 77dd 9b3d 18a9 30bb
-0.17183094 -0.053774726 -0.17163509 -0.28820246 0.07163828 0.07295044 0.14163496 0.041654743
0.058432132 -0.25771058 0.06761888 0.13991272 -0.0065640826 0.032285508 -0.04341977 0.018957186
0.101266354 0.118887335 -0.012568334 -0.03212105 0.21748377 0.063255444 -0.23331067 -0.098502085
-0.1492329 0.013756174 0.060998958 -0.11457919 -0.058184024 0.10710767 -0.022380313 0.1710227
0.15837714 -0.2918166 -0.08919048 0.14994957 -0.14121407 0.24788253 0.0026233199 -0.08402568
-0.025351776 0.10481282 -0.05238643 -0.08716874 -0.07277405 0.09512038 0.1572661 -0.18903875
0.21120754 -0.013114237 0.045031164 -0.3017043 0.04336862 0.06345258 0.17469579 0.103995875
-0.12630446 0.019039555 -0.06626619 0.050578438 0.17384528 0.19668835 -0.1287592 0.08552848
-0.049412783 0.016007457 0.028225368 -0.22355899 -0.057529494 -0.33040494 0.13074307 -0.23047164
-0.24145825 0.0071752304 0.17693496 0.13756892 0.33472028 -0.15042588 -0.059710268 -0.11838346
-0.011504409 0.042615335 -0.21367122 -0.17973627 -0.07170017 0.14285995 -0.08063477 -0.056073613
0.12811492 -0.0061250115 0.087226436 -0.0062789638 0.047336973 0.026326299 -0.13606481 0.18052767
-0.2528514 0.11188298 -0.016543802 -0.06170716 -0.13917793 -0.17104793 0.006910701 0.01462788
0.029897686 -0.06698627 -0.28308275 -0.079663426 -0.2075559 -0.07437288 -0.096236736 -0.11788076
-0.037838243 0.09553139 0.10409787 -0.008421196 -0.077718064 -0.18577854 0.23170702 -0.4255504
-0.367545 0.039457854 -0.42379037 -0.014810681 0.17642003 0.11490977 0.045770135 -0.050667997
0.009199764 -0.015853938 -0.3442943 0.22773583 -0.08902295 -0.31684062 0.104062736 0.09788537
-0.00511175 -0.14406233 0.15172432 -0.25589836 -0.12459298 0.026973536 -0.10362271 -0.15623564
-0.018185962 0.078910515 -0.13471857 -0.38246578 0.14877705 -0.34060678 -0.20690095 -0.043332376
-0.12496899 -0.18476956 0.044717614 -0.2196937 -0.0031050378 -0.01700956 -0.061471473 0.15152855
0.08375182 0.12868495 -0.14675868 0.04854837 -0.048566125 -0.63174045 -0.051792614 0.13938256
-0.12477448 -0.12597458 0.012350951 0.078947045 0.16328663 -0.05386343 0.028111653 -0.01993955
-0.1078676 -0.1568501 0.13685372 0.07955828 0.08976272 -0.055244967 0.1633398 -0.2313108
-0.16062042 -0.19783215 -0.21532115 -0.034579046 -0.13882329 0.11419616 -0.1269046 -0.03556409
-0.19097286 0.087376565 0.10058434 -0.006098604 -0.12212962 0.08357748 -0.031583328 -0.31057054
-0.30492726 -0.099098705 0.06656336 -0.03542731 0.07197219 0.088027984 0.120609574 0.08777545
-0.34077287 0.023856508 0.06599203 -0.13317509 -0.08699054 0.068474025 -0.09436653 0.01068413
0.09429033 0.07536769 -0.022027057 -0.069780976 0.004304328 -0.26272607 0.009788377 0.08283496
-0.39266688 0.02030134 -0.10744191 0.06863107 -0.07943501 -0.09629297 0.10767862 0.020282624
0.17399125 0.039722096 0.11185282 0.1885775 0.18705659 -0.032022454 -0.22335096 -0.001884277
-0.02950453 -0.0062485784 -0.1529805 0.05480949 -0.088301525 -0.20488322 -0.062933326 0.145883
-0.1057139 -0.16223305 -0.2988932 0.043455265 0.03406082 -0.18127948 0.076106004 -0.0026956256

fc3.bias f4 [10]
00000000: 1825 e73d cc6c 933e f084 ff3c 6369 bf3d
00000010: 3e4b 9cbc bc27 663d 834d d73c 8acc e5bd
00000020: 5cf8 023e 590e 6cbc
0.11286372 0.28793943 0.03119132 0.09346273 -0.019078847 0.056190237 0.026282078 -0.11220653
0.12790054 -0.014407718
